…
   "source": [
    "# RNN"
   ]
  },
  {
   "cell_type": "code",
   "execution_count": 20,
   "metadata": {},
   "outputs": [
    {
     "name": "stdout",
     "output_type": "stream",
     "text": [
      "Found 3285 unique tokens.\n",
      "(25537, 500)\n",
      "Total 400000 word vectors.\n",
      "256\n",
      "Model: \"sequential\"\n",
      "_________________________________________________________________\n",
      " Layer (type)                Output Shape              Param #   \n",
      "=================================================================\n",
      " embedding (Embedding)       (None, 500, 50)           164300    \n",
      "                                                                 \n",
      " gru (GRU)                   (None, 500, 256)          236544    \n",
      "                                                                 \n",
      " dropout (Dropout)           (None, 500, 256)          0         \n",
      "                                                                 \n",
      " gru_1 (GRU)                 (None, 500, 256)          394752    \n",
      "                                                                 \n",
      " dropout_1 (Dropout)         (None, 500, 256)          0         \n",
      "                                                                 \n",
      " gru_2 (GRU)                 (None, 500, 256)          394752    \n",
      "                                                                 \n",
      " dropout_2 (Dropout)         (None, 500, 256)          0         \n",
      "                                                                 \n",
      " gru_3 (GRU)                 (None, 256)               394752    \n",
      "                                                                 \n",
      " dense (Dense)               (None, 4)                 1028      \n",
      "                                                                 \n",
      "=================================================================\n",
      "Total params: 1586128 (6.05 MB)\n",
      "Trainable params: 1586128 (6.05 MB)\n",
      "Non-trainable params: 0 (0.00 Byte)\n",
      "_________________________________________________________________\n",
      "Epoch 1/10\n",
…
   "source": [
    "# RCNN"
   ]
  },
  {
   "cell_type": "code",
   "execution_count": 41,
   "metadata": {},
   "outputs": [
    {
     "name": "stdout",
     "output_type": "stream",
     "text": [
      "Found 3285 unique tokens.\n",
      "(25537, 500)\n",
      "Total 400000 word vectors.\n",
      "Model: \"sequential_2\"\n",
      "_________________________________________________________________\n",
      " Layer (type)                Output Shape              Param #   \n",
      "=================================================================\n",
      " embedding_2 (Embedding)     (None, 500, 50)           164300    \n",
      "                                                                 \n",
      " dropout_4 (Dropout)         (None, 500, 50)           0         \n",
      "                                                                 \n",
      " conv1d_4 (Conv1D)           (None, 499, 256)          25856     \n",
      "                                                                 \n",
      " max_pooling1d_4 (MaxPoolin  (None, 249, 256)          0         \n",
      " g1D)                                                            \n",
      "                                                                 \n",
      " conv1d_5 (Conv1D)           (None, 248, 256)          131328    \n",
      "                                                                 \n",
      " max_pooling1d_5 (MaxPoolin  (None, 124, 256)          0         \n",
      " g1D)                                                            \n",
      "                                                                 \n",
      " conv1d_6 (Conv1D)           (None, 123, 256)          131328    \n",
      "                                                                 \n",
      " max_pooling1d_6 (MaxPoolin  (None, 61, 256)           0         \n",
      " g1D)                                                            \n",
      "                                                                 \n",
      " conv1d_7 (Conv1D)           (None, 60, 256)           131328    \n",
      "                                                                 \n",
      " max_pooling1d_7 (MaxPoolin  (None, 30, 256)           0         \n",
      " g1D)                                                            \n",
      "                                                                 \n",
      " lstm_4 (LSTM)               (None, 30, 256)           525312    \n",
      "                                                                 \n",
      " lstm_5 (LSTM)               (None, 30, 256)           525312    \n",
      "                                                                 \n",
      " lstm_6 (LSTM)               (None, 30, 256)           525312    \n",
      "                                                                 \n",
      " lstm_7 (LSTM)               (None, 256)               525312    \n",
      "                                                                 \n",
      " dense_3 (Dense)             (None, 1024)              263168    \n",
      "                                                                 \n",
      " dense_4 (Dense)             (None, 4)                 4100      \n",
      "                                                                 \n",
      " activation_1 (Activation)   (None, 4)                 0         \n",
      "                                                                 \n",
      "=================================================================\n",
      "Total params: 2952656 (11.26 MB)\n",
      "Trainable params: 2952656 (11.26 MB)\n",
      "Non-trainable params: 0 (0.00 Byte)\n",
      "_________________________________________________________________\n",
      "Epoch 1/15\n",
…
